checkpoints/crowd_counter.pth (torch, 245861 bytes, 9 tensors)

conv1.weight f4 [16, 3, 9, 9]
000000 8e 1c 1c 3d 53 3c 38 3d a9 13 1b bd a4 58 c7 bc
       0.03811317 0.044979405 -0.037860546 -0.02433426
000010 6e 6b 19 3d 7f 67 e1 bc cf 2d 19 bc 97 33 3a 3d
       0.03745597 -0.027515171 -0.0093493005 0.045459356
000020 c0 3e a7 bc 87 1b 21 3d 42 53 dc bc fe d5 19 bd
       -0.020415664 0.039332893 -0.02689517 -0.037557594
000030 5b b2 d3 3c e3 26 40 3b f3 d6 72 3d 1b 3d f4 bc
       0.025841882 0.0029320053 0.059287023 -0.029814294
000040 40 c1 d6 bc b2 6d 3b bd 99 be e1 bb 97 3b 88 bc
       -0.026215196 -0.04575891 -0.006889176 -0.016629977
000050 87 af 20 bd c8 61 2d 3c 49 ac 10 bd a6 79 09 bd
       -0.039229896 0.010582395 -0.035320554 -0.03356328
000060 43 3d 8d 3d 2f 4f 9e bb 53 47 d7 3c 48 c5 ca bc
       0.0689645 -0.0048312168 0.026279127 -0.024752274
000070 df 10 ee bc 88 84 3a 3d 43 a4 d4 ba d7 28 b6 3c
       -0.02906078 0.045536548 -0.001622327 0.02223627
000080 06 18 83 3c f6 ad ed bc 65 67 b8 bc ec c8 ee bc
       0.016002666 -0.029013615 -0.02251024 -0.029148541
000090 03 6f a8 3c 55 8c 42 bd 2d fd d9 bb 9f 47 55 bd
       0.020560747 -0.047497112 -0.0066524954 -0.052070256
0000a0 a3 b1 06 3d b3 f3 1d 3d 8c 20 9b 3c 03 a2 84 3c
       0.03288425 0.038562488 0.018936418 0.016190534
0000b0 8b f5 15 bd a0 c6 95 3c 7a de 6f bc d3 b7 95 3d
       -0.03661112 0.018283188 -0.014640445 0.07310452
0000c0 db 07 b9 3c 6c 9e 0c bd ba b5 b1 bc 0e 8e 54 bd
       0.022586754 -0.03433077 -0.0216931 -0.051893286
0000d0 eb 53 9f bc de 52 9e 3c 3d 79 82 3d 8e a3 e7 bc
       -0.019449195 0.019326624 0.063707806 -0.028276231
0000e0 70 3f 45 3d 87 9e ee bc 10 a5 1d bd b3 b8 10 bd
       0.0481562 -0.029128326 -0.038487494 -0.035332393
0000f0 88 b5 eb bc f0 4d 83 3d 2c df 16 bd 72 9d ea bc
       -0.028773084 0.0641135 -0.036833927 -0.028639529
000100 93 00 5d bc 24 be 44 bc 10 c4 25 bd ec 34 01 3d
       -0.013488906 -0.012008224 -0.040470183 0.03154461
000110 bc 1e 10 bd 7b b0 fb 3c 96 a8 fb bc c1 88 f0 3c
       -0.03518556 0.0307238 -0.030720036 0.029362084
000120 f9 bf 2a bd 85 a4 cf 3c b0 3e 7e 3d 3e 37 78 bc
       -0.041686986 0.025347004 0.062071502 -0.0151498895
000130 29 c1 28 bd e2 a3 4f bd 7e 4f 99 3c 4a 18 48 bc
       -0.041199837 -0.0506934 0.018714663 -0.012212822
000140 37 30 4b bd 32 82 09 bd fd 82 a7 bc e6 61 81 3d
       -0.049606528 -0.03357143 -0.020448202 0.06317501
000150 ae 4d 9d 3c 0a ee 42 bd a8 8a be 3c 03 a8 b0 b9
       0.01920208 -0.047590293 0.023259476 -0.00033694514
000160 5a 41 3d 3d 19 39 b0 bc b2 95 5d bc e0 cb 29 bd
       0.046204902 -0.021511601 -0.01352446 -0.041454196
000170 6e 61 19 3c c8 1c 65 bd b6 27 38 bd f9 dc 28 bd
       0.009361608 -0.05593565 -0.044959746 -0.04122636
000180 71 a5 23 3c 1d fa 8a 3d 29 53 0e bd bf b7 87 bb
       0.009988175 0.067859866 -0.034747276 -0.0041417773
000190 e7 ad 35 bd bc 6d e2 bc e3 39 52 bc 02 75 61 3d
       -0.0443553 -0.027640216 -0.012831184 0.055043228
0001a0 bc 94 b2 3b 84 49 3b bc e5 bc 80 3d 81 89 0a bd
       0.0054498594 -0.011431102 0.06286029 -0.03382254
0001b0 00 2e 9c bb 01 be 9f bc 1f 84 82 3c 1a 97 3d 3c
       -0.004766226 -0.01949978 0.01593214 0.01157167
0001c0 b8 1b 15 bd 3e d2 ee 39 e7 4c 83 3c c1 b6 7e 3d
       -0.036403388 0.0004555154 0.01602788 0.062186006
0001d0 45 f6 06 bd 92 68 e0 3c 76 dc 1c 3d e1 70 ca ba
       -0.032949705 0.027393613 0.038296185 -0.0015445017
0001e0 fa 2a 47 3d b9 a0 4d bb 17 5c 2e 3d 15 51 38 bc
       0.04862497 -0.0031376316 0.042568292 -0.0112498
0001f0 0d 73 88 3d 98 19 1e 3d e4 33 bd ba ab d8 18 bc
       0.06662569 0.038598627 -0.001443502 -0.009329001
000200 2f 41 51 bd a1 de 38 bb 80 3e 0d 3d 6d 50 ac bc
       -0.051087555 -0.002820887 0.034483433 -0.021034444
000210 62 33 c4 bb cc 3f 7f 3d b5 5b bd bc b3 ee 2c bc
       -0.0059875706 0.0623167 -0.023115018 -0.010554957
000220 eb 2c 3e bd 29 da 09 3d 5f 82 50 bd 9c 65 1b 3d
       -0.046429556 0.03365532 -0.05090558 0.0379387
000230 5e 4d 3b 3d 42 ed 6f 3d df 02 c5 3c 15 27 38 bc
       0.04572808 0.058575876 0.02404922 -0.011239787
000240 a5 04 49 3d 19 81 f8 bc e7 90 8a 3a 1b c5 0d bd
       0.049076695 -0.030334996 0.0010571749 -0.034611803
000250 a2 ec 36 bd 0f e1 60 3d 05 bd 17 bc 0e 5f 41 bd
       -0.044659264 0.054902133 -0.009261374 -0.04720979
000260 f7 0e 4e bd df b6 87 3d 78 31 17 3d 4a d2 ce bc
       -0.05030724 0.06626677 0.03691241 -0.025246758
000270 89 aa 59 3d 8e a7 0f bd a4 8e 6e 3c 8b 9b fa 3c
       0.05314115 -0.035071902 0.014560375 0.030591747
000280 8f 85 14 bd fb ae 44 bd 5d 07 69 3d 2e 9d 93 b8
       -0.036260184 -0.048018437 0.056891788 -7.038783e-05
000290 da 10 4a bc 38 b5 cb bc e7 ee b9 3c ef 67 93 39
       -0.012333119 -0.024866685 0.022696925 0.00028115461
0002a0 6e ad 88 bc 73 3d c6 bb 78 b1 68 bb 22 f4 14 bd
       -0.01668426 -0.006049806 -0.003550617 -0.036365636
0002b0 2b 44 0e 3d 30 a8 3c 3d 22 21 69 3d ae 76 27 bd
       0.03473298 0.046058834 0.056916364 -0.040884666
0002c0 0b d2 81 3c 48 aa 87 3d 68 d4 e3 bb dc c7 15 bd
       0.015847227 0.066242754 -0.006952811 -0.036567554
0002d0 6a 5a 23 bd 33 bb 9f b9 6c 46 d2 3a 09 1d 39 3d
       -0.039881147 -0.00030466318 0.0016042716 0.045193706
0002e0 ef 59 2e bd c3 f4 8a bc 27 1f 38 3c ac f6 3a bd
       -0.042566236 -0.016962415 0.011237896 -0.0456454
0002f0 f7 6e ec bc 0c 42 44 3c 1b c0 05 3d 80 76 10 3d
       -0.028861506 0.011978637 0.03265391 0.03526926
000300 b3 42 cf bc 0a a6 2e 3d 19 92 2e bd 3b 9d 3f bc
       -0.02530036 0.042638816 -0.0426198 -0.0116952015
000310 96 5b 25 3d 8b 09 41 3d bf 6f 78 3d f4 d6 d6 3c
       0.040370546 0.04712824 0.060653444 0.026225545
000320 fc c1 ac ba 5b b9 29 3c d6 41 8c 3d 13 87 0b 3d
       -0.001318037 0.010359134 0.06848495 0.034064364
000330 80 cb 22 bd 07 0e 2c 3d 9a 19 37 bd 09 75 53 bc
       -0.039744854 0.042005565 -0.04470215 -0.012906321
000340 45 10 54 bd 24 ff cb bc 75 8f fc bc 94 06 94 bc
       -0.05177333 -0.024901934 -0.030830124 -0.018069543
000350 81 77 4f bd dd 5d 93 bb 3b 22 15 3d 0c 87 bf 3c
       -0.050651077 -0.0044972734 0.036409598 0.023379825
000360 4d 11 0b 3d 21 b3 59 3d aa ce 0e bc 16 0e 7c 3d
       0.033952046 0.053149346 -0.008716265 0.06153687
000370 29 12 14 bc db f4 5f 3d 55 41 49 bc 9e 4c b1 bc
       -0.009037533 0.05467687 -0.012283643 -0.02164298
000380 2d 30 dc 3c 2b a7 c5 bb 35 35 86 bc 93 7d af 3c
       0.02687844 -0.006031891 -0.016382793 0.021422183
000390 9c 7a 33 3d 3d 93 38 bc 08 4f 3d bc 54 8e 2b bd
       0.0438181 -0.011265573 -0.011554487 -0.04188378
0003a0 ab d5 b8 bb 29 5f a9 bc 5b ec e7 bc 92 b0 15 3d
       -0.0056407056 -0.020675259 -0.028310945 0.036545344
0003b0 a7 7f 32 3c f1 d0 1b 3d ec 17 a9 bc 6c d7 41 bd
       0.0108946925 0.03804106 -0.02064129 -0.047324583
0003c0 ab a8 1e bb 24 60 8b 3d 39 74 36 bd 5f e1 90 bb
       -0.002420942 0.06805447 -0.044544432 -0.0044213976
0003d0 c2 28 c6 bc 76 df 6f 3d fd 2a c4 3a d6 b2 dd 3c
       -0.024189357 0.05856272 0.0014966425 0.027062815
0003e0 5a a4 06 3c 53 20 71 bd 92 7e 83 3c 3f 41 1c bd
       0.008217895 -0.058868717 0.016051564 -0.03814816
0003f0 58 9e 66 bd e1 2e 2b 3d 65 5a d6 bc 07 4d 6e bd
       -0.056303352 0.041792754 -0.02616615 -0.058178928

conv1.bias f4 [16]
000000 6a 45 27 3d f4 85 37 bd 23 6c c0 bb a2 84 5b 3b
       0.040837683 -0.044805482 -0.005872266 0.0033495803
000010 88 79 17 3d da fd a3 3c 2a d3 10 3b 2e 38 59 bd
       0.036981136 0.020018507 0.002209852 -0.053032093
000020 61 79 c0 bc 64 9e d6 3c ad 41 46 3c b8 f1 65 bc
       -0.023495378 0.026198573 0.012100619 -0.014034681
000030 0f 6e d3 3c f8 a2 8a 3d f1 05 85 bd b9 31 4c bd
       0.025809316 0.06769365 -0.06495274 -0.049852107

conv2.weight f4 [32, 16, 7, 7]
000000 a7 68 ef bc de 7d 88 3c 98 96 2a 3c 92 79 72 bc
       -0.029224707 0.01666158 0.010411881 -0.014799492
000010 bf 0c 9d 3c a6 d3 a9 3c 63 db 0f 3d ab 1a e7 bc
       0.019171117 0.020730805 0.035121333 -0.028210958
000020 e4 db ca ba b5 eb 19 3c 13 eb bc 3c 7a 84 68 bc
       -0.001547691 0.009394576 0.02306131 -0.014191741
000030 db fd 8d 3c 91 61 04 3d e6 78 ae b9 9c 5c be 3c
       0.017332962 0.03231961 -0.00033277943 0.023237519
000040 eb 1d ca bc 6a e5 91 3c 5e fc 5b bc 05 f2 e2 3c
       -0.02467247 0.017809588 -0.013426868 0.027703295
000050 6d bc a5 bc 47 b5 93 bc 73 6d e3 bc bc 07 8a 3c
       -0.02023145 -0.018030776 -0.02776215 0.016849391
000060 0e 9d b4 3c 30 c9 35 3d 69 93 35 3c 23 e0 9d 3c
       0.022047546 0.04438132 0.011082509 0.019271916
000070 06 2e 94 3c c6 cd 62 bc aa 07 1b 3d 20 87 24 3d
       0.018088352 -0.0138430055 0.037849106 0.040167928
000080 2f 0c 98 bc 7a 94 42 3b de 6e b1 bc 56 48 9e bc
       -0.018560497 0.002969055 -0.02165931 -0.019321602
000090 02 f4 a5 3b 16 2b cd bc a8 a1 8d bc 1d e2 06 3d
       0.0050644884 -0.025044959 -0.017288998 0.032930482
0000a0 3d 5f 4b bc 00 c3 31 3c 15 12 8f 39 42 90 28 3b
       -0.012412843 0.010849714 0.00027288558 0.002572075
0000b0 94 95 dd 3c b9 b2 7c bb 4a d2 11 bc 1e e2 d7 bc
       0.027048863 -0.0038558675 -0.0089002345 -0.026352938
0000c0 60 f3 07 3d 22 2b 70 bb 4c a0 c4 3c 18 34 fe bc
       0.033191085 -0.0036646803 0.024002217 -0.0310307
0000d0 c8 3a 18 bd 6f 86 83 bc 8f 2f df 3c bb 11 a1 bc
       -0.037165433 -0.016055314 0.027244357 -0.019661775
0000e0 ea c5 0a bd 0b 5f f1 bc 82 8e 9f bc ef 4b b8 bc
       -0.03388015 -0.029464265 -0.019477133 -0.022497145
0000f0 29 2d 13 3c 81 f1 a5 3b 45 bd 09 bc 6c 6a 28 bc
       0.008982935 0.00506419 -0.008406942 -0.010279279
000100 37 fc b6 bb d4 53 ba 3c 48 1e dd 3c d1 d6 e7 3b
       -0.0055842656 0.02274505 0.026991978 0.0070751687
000110 8e 64 06 bc 45 6f 7b bc 4d 75 ab 3a 4f fe 04 3b
       -0.008202685 -0.015346353 0.0013081223 0.0020293181
000120 49 28 60 bc a1 75 ae bc eb ba 61 3b a3 23 ae bb
       -0.01368148 -0.021296324 0.0034443687 -0.005314307
000130 17 24 08 bc f6 29 24 3c fc a6 e8 3a 1c 67 d1 bc
       -0.008309386 0.01001977 0.001774996 -0.025561862
000140 27 b7 30 3c 92 e5 96 3a 77 a6 ab 3c d1 17 0a bd
       0.010785854 0.0011512509 0.0209534 -0.03371412
000150 ec bd 30 bc ba be a8 bb e4 1d e7 3c 92 db 79 3a
       -0.010787468 -0.0051496895 0.028212495 0.0009531315
000160 11 7c 95 3c 15 c7 77 3b 79 bf b3 3a 41 51 32 3d
       0.018247636 0.003780787 0.001371368 0.04353452
000170 d8 e1 81 3b 60 e0 2a 3d 85 17 af ba 8b 9a 38 3d
       0.0039636903 0.041717887 -0.001335845 0.04506926
000180 00 88 2a bc db bb 7f 3c 19 cf 03 3c 80 29 98 bc
       -0.0104084015 0.015608753 0.008044981 -0.018574476
000190 c9 04 7e 3c 6e 78 96 3c d4 81 26 bc 73 bd 95 3b
       0.015504071 0.018367972 -0.010162789 0.0045697032
0001a0 d4 0c 53 3c b6 a2 f2 bc d7 6b 81 3c 51 e0 d6 3c
       0.012881476 -0.029618602 0.015798492 0.02623001
0001b0 68 96 b4 bc d0 a0 12 bd a2 1c da ba 14 2c ba bc
       -0.022044376 -0.035797894 -0.0016640613 -0.022726096
0001c0 bf 52 b8 bc 2c 40 1d bc 92 0a dd bb e4 6c 28 3b
       -0.022500394 -0.009597819 -0.006745645 0.002569967
0001d0 35 71 9e 3c 05 f1 04 3d 23 f5 77 3c a7 d8 9a 3b
       0.01934109 0.032456417 0.015134129 0.004725534
0001e0 01 66 1e 3c 20 33 a8 3b 28 86 0e 3c cf 42 11 bc
       0.009667874 0.0051330477 0.0086989775 -0.008866026
0001f0 d3 8b b4 3c 85 7e ca bc 40 72 e8 bc 7c 0b 16 3b
       0.02203933 -0.024718532 -0.028374791 0.0022895029
000200 a4 dc 6f ba 33 ea 0c bd 33 a4 f2 3b e7 dc 14 bc
       -0.00091500045 -0.034403037 0.007404828 -0.00908587
000210 01 2a c2 bc 67 ca 19 3c 3c fb d0 b8 c6 c5 be 3c
       -0.02370167 0.009386635 -9.965009e-05 0.023287665
000220 f9 0f 83 3c be 51 fc bc b5 51 8d bb 6a cd b1 3c
       0.015998827 -0.030800696 -0.0043127188 0.021704394
000230 9f 93 c4 bc b3 69 57 3c 1d 51 8f bc c2 b9 5f bc
       -0.023996172 0.013147759 -0.017494733 -0.013655128
000240 88 51 10 bc 49 ed d1 bc 15 15 f8 bc 3d 13 81 bb
       -0.008808501 -0.025625842 -0.03028349 -0.003939061
000250 01 86 d0 3c 32 8c aa 3c 46 29 f9 3c 0f ea 51 bc
       0.025454523 0.020818803 0.030415189 -0.012812152
000260 23 0d 45 3c 83 45 70 bc d4 0f 43 3b 1b 54 eb 3b
       0.012027058 -0.01466501 0.0029764073 0.007181657
000270 18 e7 0a bc aa c7 24 bc 76 b8 3a 3c 66 bf 93 bc
       -0.008477949 -0.010057369 0.011396518 -0.018035602
000280 f9 3f 84 bc 80 94 b0 3c 9c 4a 19 3d c6 92 a0 bb
       -0.016143786 0.021555185 0.03742467 -0.0049003093
000290 4d f0 1c bc 6c 94 88 bc d3 ab 2b 3b 2f 5e 5b bc
       -0.009578777 -0.016672336 0.0026194945 -0.013389154
0002a0 e7 fd 0b 3d 54 16 dd 3c a2 dd 9a 3c 06 ec 7b bc
       0.034177687 0.026988186 0.01890451 -0.015376097
0002b0 fe f3 94 bc de 94 c0 bb 80 a7 a9 bc ba e2 3c 3c
       -0.01818275 -0.0058771214 -0.020709753 0.011528665
0002c0 fd 50 d8 bb ee ea 8f 3a 9e 2e e0 bc 1e d7 e9 3c
       -0.0066014514 0.0010980049 -0.027365979 0.028544959
0002d0 e6 4b d4 bc 7e 93 c4 ba 36 1d 86 3c 64 33 d3 3c
       -0.025915097 -0.0014997569 0.01637135 0.02578134
0002e0 89 38 03 bd 6d 8e 4e bc ba aa b1 bc 13 6f 04 bc
       -0.032036338 -0.012607199 -0.021687854 -0.008083123
0002f0 66 c7 31 3c d1 21 38 3c a9 76 67 bc 4f 6e d9 bb
       0.010850763 0.011238531 -0.014127412 -0.0066354643
000300 0a 90 ca bb 5f 67 52 bc f3 89 cc 3c 3e 74 3e 3c
       -0.0061817216 -0.012842028 0.024968123 0.011624394
000310 31 2a 92 3b fd 02 ce 3c d0 d6 59 bc 1e 94 83 bc
       0.004460596 0.02514791 -0.013295844 -0.016061839
000320 29 ea f9 bc 32 62 0a 3d 4f 3c f6 3c 26 75 9f bb
       -0.030507164 0.033785053 0.030058054 -0.00486626
000330 8f 5a 29 bc 6d d2 ae 3c c6 ec fe 3c ed 1b ab bc
       -0.010336532 0.021340573 0.031118762 -0.02088734
000340 4a a1 69 bc c4 9c 55 3c 12 29 c8 3c d3 93 cc 38
       -0.014259646 0.013037864 0.024433646 9.7550124e-05
000350 3c e3 bf 3b a6 45 cb bc eb 4f e2 3c da f2 9a 3a
       0.005855946 -0.024813484 0.027625998 0.0011821643
000360 f9 84 12 bd aa ef 8b bc d9 c1 ca bb 74 8b e0 3c
       -0.035771344 -0.017082054 -0.006187659 0.027410246
000370 cd bd e4 3a ce 4f 9b bc 47 5c d9 3c 86 46 04 3d
       0.0017451585 -0.018958952 0.02653326 0.03229382
000380 2c 40 59 bb 7f cb 00 3c a2 8b fc bc 84 b0 17 3d
       -0.0033149822 0.007861017 -0.0308283 0.037033573
000390 31 6d 13 3d 5b f1 fb 3c 48 6c 0a 3c 07 a9 6a bc
       0.035992805 0.030754736 0.008448668 -0.014322526
0003a0 f3 9a 83 bb 99 d0 f9 3c 55 1a 54 bc d2 82 bd bc
       -0.004016274 0.030494975 -0.012945731 -0.023133669
0003b0 29 d8 92 3c a4 7d 11 bd af 68 be 3b 02 e4 a2 bb
       0.017925339 -0.03552021 0.005810819 -0.0049710283
0003c0 5d 24 ef 3c 9e 53 e2 3c 0a 45 87 3c 28 5b 77 bc
       0.029192144 0.027627762 0.016512413 -0.015097417
0003d0 91 a5 97 3c 43 91 0f 3b a3 1f 7b 3c b6 29 09 bc
       0.018511565 0.002190665 0.015327367 -0.008371761
0003e0 3a c0 af 3c 5d 6b f6 bb 31 ea 54 bc 86 37 eb 3c
       0.021453965 -0.007520123 -0.012995289 0.028713
0003f0 68 31 53 3c 3b 31 6e 3c 3b 2d 93 bc e5 53 09 bd
       0.012890197 0.014538105 -0.017965904 -0.033527274

conv2.bias f4 [32]
000000 9c 13 98 3c 30 02 82 3c d0 fd 24 3a 24 5d 9d 3b
       0.018564038 0.015870184 0.00062939245 0.004802363
000010 4f e8 1f 3c f5 d0 b4 bc 89 36 e3 bb d8 57 a4 bc
       0.0097599765 -0.022072295 -0.0069339913 -0.020061418
000020 0d e8 23 bd ad 54 09 3c 59 97 8b 3a 53 3d fd ba
       -0.040016223 0.008382005 0.0010649964 -0.0019320644
000030 30 13 c4 bb fd 08 98 bc 13 c5 5d 3b 0b 50 0a 3d
       -0.0059837326 -0.018558973 0.003383939 0.03376774
000040 66 f7 a4 3b 9b 65 94 bc 60 00 ef 3c 8c fb 09 3d
       0.005034375 -0.018114856 0.029174984 0.03368716
000050 22 f5 e8 3b ef c6 dc bc cf 5f e0 bb 33 54 15 3d
       0.0071093002 -0.026950328 -0.006847359 0.03645725
000060 56 01 f7 3c 1d 12 25 bd 06 6b ca 3c 84 46 c8 3c
       0.030152004 -0.040300477 0.024709236 0.024447687
000070 95 b9 2c bb 3d 57 30 3d 83 79 26 3d be 27 a6 3c
       -0.0026355733 0.043051947 0.040643226 0.020282622

conv3.weight f4 [16, 32, 7, 7]
000000 96 8e 9c 3b 30 27 ae 3b 43 fe 81 3c bb 02 58 bc
       0.0047777398 0.00531473 0.015868312 -0.013184245
000010 ca 87 08 3c a1 59 3c bc 3a be d9 3c 7e 69 9b 3c
       0.008333156 -0.011495979 0.026579965 0.018971201
000020 f0 cb 35 bc 95 14 d6 3b 1d 98 6e 3c 03 36 d0 3c
       -0.011095986 0.0065332153 0.014562634 0.02541638
000030 40 51 e7 bb 36 4e 51 3c 9b 41 78 3c d3 f8 cf 3c
       -0.0070592463 0.012774995 0.01515236 0.025387203
000040 61 a9 da bb 7f 55 2f 3c 1e 25 12 3c d9 3d 4a 3c
       -0.0066730236 0.010701536 0.008919982 0.012343847
000050 1a 76 32 3b 51 75 bb 3b 28 01 4a ba 8b 30 3a 38
       0.0027231039 0.0057207723 -0.0007705861 4.4391065e-05
000060 3e 67 45 bc e5 44 9a bc b4 71 dd 3c b9 58 60 3c
       -0.012048541 -0.01883168 0.027031757 0.013693028
000070 4c 76 df bb 53 2f cd 3b 3c b4 3e bc 1d 56 ea 3c
       -0.006819522 0.006261745 -0.011639651 0.028605515
000080 f1 79 ec 3c 7c ee 28 3c 17 26 45 3c 61 63 99 bc
       0.02886674 0.010310765 0.012033007 -0.018724145
000090 48 e6 69 bc ae 51 93 bb 42 a2 41 bc f2 94 6a ba
       -0.014276095 -0.004495821 -0.01181847 -0.0008948586
0000a0 4b 90 7d 3c 6c 29 8d bc 41 e1 bd bc 14 47 2f bc
       0.015476297 -0.017231666 -0.023178698 -0.010698099
0000b0 10 9e eb bb 73 5c 52 3c da 18 c6 3c bf 53 eb 3c
       -0.0071904734 0.012839424 0.024181772 0.028726457
0000c0 0e 2d 8e 3c 33 85 fa 3b 9c bf c9 bb e1 75 5f bc
       0.017355468 0.007645273 -0.006156875 -0.013638944
0000d0 8e d3 a7 3c 6c 0b 8f 3c 21 0d a1 bc 18 98 6b bb
       0.02048662 0.017461501 -0.01965958 -0.003594881
0000e0 0e ea 55 3c e5 db 11 bb 75 84 52 3c 06 54 7a 3c
       0.013056291 -0.0022256311 0.012848963 0.015278822
0000f0 0e fe 79 3c ef d0 13 3c 99 ca a5 3c 5a 90 0e 3a
       0.015258325 0.009021982 0.020238208 0.000543838
000100 ec a5 3e 3b 2f 6a e0 3b 02 88 3e 3c f3 b1 ae bc
       0.0029090596 0.0068485956 0.0116291065 -0.021325087
000110 6e a6 95 bc dd 7f b5 bc d3 0a 6c bb 46 bb 07 bc
       -0.018267836 -0.022155697 -0.0036017194 -0.008284396
000120 52 98 07 bc 32 3e 11 3b a6 ae 04 bc 1e 4b ad bc
       -0.008276062 0.0022162315 -0.00809828 -0.021153983
000130 7a 31 97 3c 52 4e 4b 3c cb f0 d4 3c f4 ca b4 3c
       0.01845621 0.01240881 0.025993725 0.022069432
000140 99 27 6e 3c 83 d3 35 3c ab 32 09 bc e5 f2 55 bc
       0.014535808 0.011097792 -0.008373897 -0.013058399
000150 af f4 4a 3c bd 50 8d bc 69 dd 08 bc 76 ea d7 bb
       0.012387439 -0.017250413 -0.00835357 -0.006589229
000160 71 99 bf 3c 5b c6 d9 3b 11 f4 e6 bb 44 8a 93 bc
       0.023388596 0.0066459603 -0.007048138 -0.018010266
000170 3d 4e 76 3c 9b b0 5a bc a0 52 55 3c 48 5f b2 bb
       0.015033302 -0.01334777 0.013020188 -0.0054434873
000180 cb c0 3f bc 70 21 c7 bb a4 a9 1b 3c 16 12 43 3c
       -0.01170368 -0.006076984 0.009500895 0.0119061675
000190 10 d7 e5 3c 28 d3 5f bc 72 ac c2 3c ee f9 c6 3b
       0.028056651 -0.013661183 0.023763869 0.0060722744
0001a0 9a ba 5a 3c ab 5f 56 bc 2b f2 d9 3c 13 47 10 3b
       0.013350153 -0.013084332 0.026604732 0.002201502
0001b0 36 d3 d8 3c 4f 60 48 b9 9c 94 98 bc 3f 52 83 3c
       0.0264679 -0.00019109364 -0.01862555 0.016030429
0001c0 4a 99 a2 bc 5f fd ab bc dc 1b c1 ba 19 a8 93 3c
       -0.019848485 -0.02099484 -0.0014733034 0.018024491
0001d0 df 9d 69 3c 64 78 95 bc b1 11 2a 3c 4a 72 9e ba
       0.014258831 -0.018245883 0.0103801945 -0.0012088504
0001e0 82 b2 6e bc 58 3d 7f 3c 51 14 1d 3c 8a 92 38 bc
       -0.014568927 0.01557859 0.009587363 -0.011265406
0001f0 b4 2f 9f bb 05 bb 84 bc c0 df 8e 3c f6 bb ce 3c
       -0.0048579816 -0.01620246 0.017440677 0.025236111
000200 ee 6f c4 bb d7 0e 1b 3c dd f0 d5 bb ba 1f 82 3c
       -0.0059947884 0.009463987 -0.0065289573 0.015884269
000210 84 b1 65 3c c7 7f 86 bc 26 bd b9 3c 51 ee 98 3c
       0.014019374 -0.01641835 0.0226732 0.018668326
000220 7f 24 16 ba df 7e b1 bc cd b1 e1 bb 3a 10 4d 3b
       -0.0005727484 -0.021666942 -0.0068876506 0.003129019
000230 e8 49 4b bc b4 02 57 3c ee f9 7a 3a 5b 56 12 bc
       -0.012407757 0.013123203 0.00095739856 -0.008931722
000240 b6 b6 fc 3b 32 2f 96 bc 11 a9 ad bb b0 62 82 bc
       0.0077122105 -0.018333051 -0.0052996953 -0.015916198
000250 0f fa 6d 3b a2 b6 a7 bc 4d ff c4 3c 41 55 b6 3c
       0.0036312377 -0.020472828 0.024047518 0.02225745
000260 9f 80 ba 3c ea 1d 8e 3c 4d 39 8d bc 78 b8 d1 3b
       0.02276641 0.017348249 -0.017239237 0.006400164
000270 b1 ee 97 3c 2c 76 8a bc bc 3c b8 3b 5c 6f 97 3c
       0.018546434 -0.016902052 0.0056224745 0.018485717
000280 cd 86 bb 3c 1b e7 dc bc a5 fc e0 bb 48 bc 94 bc
       0.022891426 -0.026965668 -0.006866055 -0.018156186
000290 44 32 88 3c ed 5f 0e bb 3a d5 05 ba eb c7 a3 ba
       0.016625531 -0.0021724657 -0.00051053206 -0.0012495493
0002a0 f2 be 8f 3b 90 e8 61 bc 7e 0a 4c bc d0 b0 3c 3c
       0.004386776 -0.013788357 -0.012453673 0.011516765
0002b0 89 40 ce 3c bf a6 f0 3b 03 2a d9 3a 4d c1 10 bc
       0.025177257 0.0073440964 0.0016568307 -0.008835149
0002c0 4e 44 81 bc c8 78 a3 3c fe 10 b6 bc 5a f7 bf 3c
       -0.01577964 0.019955054 -0.0222249 0.023433376
0002d0 20 28 7b bc 10 68 98 bc 69 f9 76 3c 21 18 83 3c
       -0.015329391 -0.018604308 0.015074112 0.016002716
0002e0 8b 72 a2 3c 97 e9 52 bc 64 56 ac bc e4 e2 12 3b
       0.019830009 -0.012873075 -0.021037288 0.002241307
0002f0 9f 65 ae 3c 5f 62 95 bc 54 54 42 bc e9 fa 2d 3a
       0.021288691 -0.018235384 -0.011860926 0.0006636815
000300 7d 18 bd 3c d4 c9 9d 3c 01 a8 7b 3c 7e c9 f6 bc
       0.023082966 0.019261278 0.0153598795 -0.030125376
000310 49 14 f2 bb 83 1c ce 3c 8f 1b 20 bc 6a e7 b7 3c
       -0.007387672 0.02516008 -0.0097721955 0.022449214
000320 27 c9 5f bc 65 0a b0 3c 38 a5 b8 3b 4a f3 95 3b
       -0.013658798 0.021489331 0.00563493 0.0045761215
000330 b5 b1 85 bc ac c3 c3 bc de ea cc ba 96 05 c2 39
       -0.016320089 -0.023897015 -0.0015633961 0.00037006725
000340 dc d1 2f bc dc 7a ac 3c 45 4e 48 bc 72 43 53 bc
       -0.010731187 0.021054678 -0.012225692 -0.012894498
000350 2e 41 06 bc c9 3b d6 3a 5f af f1 bb d2 2d 36 3a
       -0.008194251 0.0016344722 -0.007375642 0.0006949577
000360 55 c1 a0 bc b3 d0 34 3b 84 62 1d 3c c2 83 98 3b
       -0.019623438 0.0027590215 0.0096060075 0.0046543786
000370 90 85 65 bc d2 96 ac 3c 6b b1 c7 bc 7b f0 07 3c
       -0.014008895 0.02106801 -0.024376592 0.008297081
000380 7f 45 ba bc 68 df ca bb 7c 1e b0 bc 06 c8 1c 3c
       -0.022738216 -0.006191183 -0.021498911 0.009569174
000390 82 fe 3f bc 5b 0b 96 3b ec 9a 5a bc f9 44 48 bc
       -0.011718394 0.0045789904 -0.0133426 -0.012223476
0003a0 8a 45 86 3a b1 bf 55 3c b9 a1 dc 3b 78 e1 93 bc
       0.0010244113 0.013046191 0.006733146 -0.018051848
0003b0 21 65 96 bc 55 e3 b1 3b 3a f8 a3 3c 4b 06 4e bb
       -0.018358769 0.0054287114 0.020015825 -0.0031436856
0003c0 da cb c9 bc d2 99 a5 bc 42 0c a7 3c d0 1d 80 3a
       -0.024633337 -0.020214949 0.020391587 0.000977451
0003d0 4c 8c ba bc f8 17 b7 3c ae a0 31 3c 50 92 a3 bc
       -0.022771977 0.022350296 0.010841532 -0.019967228
0003e0 34 6b 1b bc 69 f2 8b 3c 5e dd da bb d5 63 c5 bc
       -0.009486008 0.017083364 -0.006679221 -0.024095455
0003f0 11 08 8f bc 53 86 c1 3c 2f 4e e5 bb fe 2d d2 3c
       -0.017459901 0.023623621 -0.0069978456 0.025656696

conv3.bias f4 [16]
000000 ea 5a 9d bc 33 39 b6 3c 0e ef bd ba 3e 2e 84 3c
       -0.01920839 0.022244072 -0.00144908 0.016135331
000010 07 57 92 3b 0b 16 bd 3b e8 0a 83 bb 0a f5 92 bc
       0.004465941 0.00577045 -0.003999103 -0.01793911
000020 35 0f aa bc da 48 78 3c 8d a5 c9 3b 8e 0c 3d 3c
       -0.020759204 0.015154088 0.0061537684 0.011538638
000030 c6 7b b2 3c 53 8f 24 bb 22 19 4b 3c 57 b3 7f bc
       0.021787535 -0.0025109842 0.012396129 -0.015606723

conv4.weight f4 [8, 16, 7, 7]
000000 99 8c 07 bd f8 5b ce 3c aa 44 c7 bc cb ee c4 3c
       -0.03309307 0.025190338 -0.024324734 0.024039647
000010 57 e8 70 bb 38 37 af 3c 71 16 ee 3c be 86 ae 3c
       -0.003675958 0.021388635 0.029063435 0.021304484
000020 0a ad 25 3c 8b 2a d7 39 e8 16 0d 3d 91 6e 0b 3d
       0.0101120565 0.00041039693 0.034445673 0.03404099
000030 5d 40 2a 3c d2 c1 c5 3c ff d6 0a 3d 41 0c db 3c
       0.010391322 0.024140272 0.033896443 0.026739242
000040 63 19 01 bd 91 a3 94 bc e7 2b f8 3b 1c 16 a5 bb
       -0.03151835 -0.0181444 0.007573593 -0.005038036
000050 a6 d6 35 3c 43 4b 56 bc d4 22 2b bb fb 70 b6 bc
       0.011098539 -0.013079467 -0.0026113288 -0.02227067
000060 e4 62 72 bb 9e 83 29 ba 7d ea d6 bc b8 7a cd 3c
       -0.0036985213 -0.0006466451 -0.02623486 0.02508293
000070 ce d0 85 bc 13 bb c9 bc 21 42 de bc 95 c8 0b bd
       -0.016334917 -0.024625337 -0.027131142 -0.034126837
000080 7c 74 8f 3c 6e 52 fe bc a3 94 cf bb 7a a6 a7 bc
       0.017511599 -0.031045165 -0.0063348575 -0.020465124
000090 70 15 44 3c 4b 2e 43 3c 9e 4b bd 3c bf ec ed bc
       0.011968002 0.011912893 0.023107346 -0.029043553
0000a0 84 bd f9 3c f8 cc 7b 3c 67 9d ab 3c e3 92 14 bc
       0.030485876 0.015368693 0.020949079 -0.009068224
0000b0 b9 a0 f3 bb 09 de 0d 3d 48 87 99 3c 69 55 4b 39
       -0.007434931 0.034635577 0.018741265 0.00019391406
0000c0 a8 0a 0a bd 1d 58 f8 3c 1e 94 a5 3c a1 85 83 3c
       -0.03370157 0.030315453 0.02021223 0.01605493
0000d0 5d 4a 22 3c 61 b4 ef bc 76 86 31 bc 07 d4 bb 3c
       0.009905425 -0.029260816 -0.010835281 0.022928251
0000e0 1f b2 99 3c f5 e3 f7 bc f4 4e 97 3c f8 b1 14 3d
       0.018761693 -0.030260066 0.018470265 0.036302537
0000f0 62 c6 f2 bb c7 80 ef 3c 06 f8 4f 3c 2c 90 ad bc
       -0.007408903 0.02923621 0.012693411 -0.02118691
000100 3d ba f2 bc df c8 30 3c b8 09 e5 bb 65 41 fe bc
       -0.029629821 0.010790079 -0.006989684 -0.031037042
000110 8f c3 5b 3b 17 51 f9 3c 59 4b 6e bc 07 18 d5 ba
       0.003353331 0.030434174 -0.0145443315 -0.0016257771
000120 8b 6c 0c bd 33 2c 03 bc fd d9 10 3d f9 31 5b bc
       -0.034283202 -0.008006143 0.03536414 -0.013378614
000130 9a 4d 9b bc 79 5b 03 3c 3b 39 32 bc ac b9 1e 3c
       -0.018957902 0.008017414 -0.010877903 0.009687822
000140 b0 49 0d 3d a2 01 65 3b 4e e0 ed bc 09 41 a3 bc
       0.034494102 0.00349436 -0.02903762 -0.019928472
000150 42 ad f6 bc e8 85 70 3c ee 16 83 bc 0f d6 0e bc
       -0.030111913 0.014680363 -0.016002145 -0.008718028
000160 6f aa db 3a 68 d3 a9 bc 09 7b 06 bd a2 fe d7 bc
       0.0016759167 -0.02073069 -0.03283218 -0.026366536
000170 21 2e ee 3c 82 ed 10 bc 7f da 04 3c 2e ff 51 3c
       0.02907473 -0.008845689 0.008108734 0.012817187
000180 64 ee ba bc 68 b4 06 bd de 91 0c 3b 88 2d c4 bc
       -0.022818752 -0.032886893 0.0021449248 -0.023947492
000190 59 40 d7 3c d2 4e 68 bb e2 36 4c 3c c1 5e 02 3d
       0.0262758 -0.0035447371 0.012464257 0.031828646
0001a0 54 87 1f bc 6b 81 b4 bc 2f 20 73 bc 26 bf 02 bd
       -0.009736855 -0.022034368 -0.014839216 -0.031920575
0001b0 bc da b8 bc 5f 1c 3f 3c 07 d4 b3 bc 4a c3 0c bd
       -0.022565238 0.011664479 -0.021951688 -0.03436593
0001c0 01 d0 09 bd 87 a2 85 bc 75 d1 9b 3c c4 fc 93 bc
       -0.033645634 -0.01631285 0.019020775 -0.018064864
0001d0 bd fe 9b 3c be 2d fc bc ae ca 82 bc c1 c0 09 bc
       0.019042367 -0.03078353 -0.015965786 -0.0084077725
0001e0 cd 15 a0 bc ad c2 f5 3b 07 c6 fa 3c 6c e6 f9 3c
       -0.019541645 0.007500014 0.030612005 0.030505382
0001f0 bb 61 d3 bc be f4 30 3c 3b 00 01 bd e9 1e c7 3b
       -0.025803437 0.010800539 -0.03149436 0.006076683
000200 a3 a0 a7 bb 29 03 bb 3b fe c4 05 bc cf 33 f5 bc
       -0.005115585 0.005707164 -0.008164642 -0.02993193
000210 7d 99 0d 3d 79 e8 e9 3b e0 d3 04 3d 12 8b df 3c
       0.034570206 0.0071383086 0.032428622 0.027287994
000220 9e ab 81 3c 4b 2a b2 3c b2 51 97 bc af b4 e2 3c
       0.015828904 0.021748682 -0.018471573 0.027674047
000230 f4 29 92 3c 46 d9 9b bc 5f 75 88 bc 6e 7c c0 bc
       0.01784227 -0.019024502 -0.01665753 -0.023496833
000240 5c 07 00 3d 24 2f c6 bb 57 c0 db 3c ba 4c ff bc
       0.03125702 -0.0060481 0.026825113 -0.031164516
000250 a8 72 b4 bb 12 dc 8d 3c 8c e9 08 bd 9e 1a 2b bc
       -0.005506832 0.017316852 -0.033425853 -0.010443358
000260 2a 60 06 3d f1 01 0f 3d d5 05 10 3c 07 66 ad bc
       0.032806553 0.03491396 0.008790453 -0.021166814
000270 af 41 2e bc f9 af ff 3a 5e a8 dd bc b4 bc 8a 3c
       -0.010635777 0.00195074 -0.027057823 0.016935684
000280 04 6e c7 3c 1d 3c c4 3b 15 08 e6 bc 90 18 f5 3b
       0.024344452 0.0059886114 -0.028080026 0.0074797347
000290 b2 f4 7d bc 88 54 be 3b b5 f4 aa 3b 46 45 0a bd
       -0.015500234 0.0058084168 0.0052171596 -0.03375747
0002a0 05 1f 57 bc 6a 70 e8 bc 59 c5 7a bc a6 8c a9 bc
       -0.013129954 -0.028373916 -0.01530584 -0.02069695
0002b0 b2 af 18 3d fc ac f9 bb bb dd 85 3c 6a c4 ba bc
       0.03727693 -0.0076194983 0.01634108 -0.022798736
0002c0 b9 5d 14 3c b5 12 e7 3b e3 15 6d bc e2 b5 5a bc
       0.009055548 0.0070517906 -0.01447055 -0.013349028
0002d0 46 e3 a7 bc 1a 60 12 3d a3 39 b7 3c 08 ef e7 bc
       -0.020494115 0.03573618 0.02236635 -0.028312221
0002e0 f5 c9 15 3d 6e ed 12 3d 67 88 14 3d 6d 50 09 bc
       0.036569554 0.03587096 0.036262896 -0.008380991
0002f0 2d ec 89 ba eb d1 97 bc 41 b8 95 ba 7c 49 0b bd
       -0.0010522656 -0.018532714 -0.001142271 -0.034005627
000300 a1 e3 5a 3c 53 45 b3 bc be 84 d9 3c 4d c8 94 bc
       0.013359935 -0.021883642 0.026552554 -0.018161917
000310 28 e7 ab bb 11 1c 91 bc 30 4e cd bc 25 82 e5 3c
       -0.005246062 -0.017713578 -0.025061697 0.02801616
000320 ee 90 f0 bc 6b 65 9b bc 0b da 35 3c f2 64 d3 3b
       -0.029365983 -0.018969258 0.011099349 0.0064512426
000330 fb 70 81 ba 5b de d6 3c 60 d4 a4 bc dc d0 64 3c
       -0.000987559 0.026229074 -0.0201208 0.013965812
000340 e8 2a c6 3b 50 7b d0 3b c3 11 93 bb 21 28 81 3b
       0.0060475953 0.0063623562 -0.0044882013 0.0039415513
000350 ce 63 a3 ba de f0 15 3b ef 26 aa 3c 64 49 d5 3c
       -0.0012465657 0.0022879164 0.020770518 0.026035972
000360 44 38 42 bc 20 a9 33 bc 79 7d 75 bc 4e 8a 78 bc
       -0.011854235 -0.0109656155 -0.014983528 -0.015169693
000370 23 8b 2c 3a a3 26 23 3c 7c 1a 35 bc 47 c1 c6 3c
       0.0006582012 0.009957942 -0.011053678 0.024262084
000380 d3 2e 02 bc ec 3b ea bc aa 62 04 bc 31 64 0a bd
       -0.007945734 -0.028593026 -0.008080164 -0.033786956
000390 48 31 e7 3c e9 63 a4 3b d4 65 01 bd 23 1a d7 bc
       0.028221741 0.005016793 -0.03159125 -0.02625758
0003a0 f5 2f 39 bb 80 18 89 3b 6f 8e 3b 3c d3 1e a7 bc
       -0.0028257344 0.004183829 0.011447533 -0.02040044
0003b0 40 5c 58 3c 98 aa 52 3c 4a dc 01 3d 51 44 34 3c
       0.013205588 0.0128580555 0.031704225 0.011002616
0003c0 6f ed 04 bd 4a eb 05 3d 5b e6 d9 bc d0 6f a3 bc
       -0.032452997 0.032695092 -0.0265991 -0.019950777
0003d0 5d cb 02 3d 9f 51 2a 3c 43 b1 08 bd fd 74 cb 3c
       0.031932224 0.010395437 -0.033372175 0.024836058
0003e0 1e a5 a9 3c 89 ca d2 3c c2 89 ff bc 74 4d 08 3d
       0.020708617 0.025731342 -0.031193618 0.03327699
0003f0 79 96 13 bd dd 14 f7 b9 d1 fe 61 3b 77 47 dc 3b
       -0.036032174 -0.00047127056 0.0034484158 0.0067223865

conv4.bias f4 [8]
000000 cd 72 b9 3c cd 10 fe 3c 00 45 2a 3d ee 3b 93 bc
       0.02263775 0.03101387 0.04156971 -0.017972913
000010 66 45 39 3c e4 63 9d bc 3a 6b 4f 3c cc f4 b9 3b
       0.01130805 -0.01921267 0.012659842 0.005674934

output_layer.weight f4 [1, 8, 1, 1]
000000 7f 42 b4 be 24 21 01 3e 6e 3d d0 bd 87 77 8b bc
       -0.35206982 0.12610298 -0.10167967 -0.017024769
000010 80 59 2d bd f4 01 64 be 4b 56 05 3e fa 70 2c be
       -0.042321682 -0.2226637 0.130212 -0.16839972
